models/best_deblur_cnn.pth (torch, 279704 bytes, 6 tensors)

conv1.weight f4 [64, 3, 9, 9]
0.0174896 -0.04462262 0.047090508 -0.07437408 0.043008942 -0.04411722 -0.017498916 0.04956291
0.028574923 -0.0031470521 -0.061251074 -0.06371235 -0.03639685 -0.057435956 -0.05145475 0.04259184
-0.046811614 -0.07317173 -0.0006868017 -0.06815855 -0.059774615 0.038557716 0.050959945 -0.05157022
-0.04704726 -0.07402546 -0.025323797 -0.068288885 -0.050045718 -0.070395514 -0.0693321 0.049887188
0.035990123 -0.01009098 -0.06227817 0.01663131 -0.036287528 -0.04354983 -0.018869357 -0.048841186
-0.069295794 -0.035769086 0.029824013 -0.049435664 -0.07003827 0.006161528 -0.018304385 -0.04810407
0.00025045124 0.0468546 0.034861412 -0.051585592 -0.07084704 -0.0011106787 -0.024705099 -0.04619928
-0.012784454 -0.039736215 0.009086714 -0.06141764 -0.03681484 -0.006985697 -0.05958965 -0.04328416
-0.06458253 0.012302647 -0.004798711 0.0046318 -0.0200385 -0.004545593 0.0008653625 -0.055874623
-0.075013235 0.040890604 -0.040954236 -0.041644678 0.02037822 0.002332532 -0.05504424 -0.031809855
-0.04342115 -0.052863576 0.01942066 -0.047134493 -0.064858794 0.040860392 0.003889896 -0.053112015
0.03398795 -0.03486084 -0.009118094 -0.041311592 0.028189799 -0.0017017443 -0.022714294 0.03113166
-0.053136796 -0.026776342 0.00919275 -0.058812883 -0.048851606 0.041065745 -0.051573884 -0.004211318
0.038281854 -0.032681514 0.0028883556 -0.059328552 -0.0022242826 0.044498812 0.03937938 -0.046918966
0.0531877 -0.010709019 0.055110063 0.033074122 -0.044703424 -0.043713283 -0.031531364 0.02121763
-0.025557209 0.05285908 0.03225838 0.015915094 0.0066845044 0.014991386 -0.038423102 -0.021033237
0.04240212 -0.05730681 -0.048912052 -0.028408602 -0.047305234 -0.02078024 0.0041961493 0.026439082
0.012980911 -0.06097487 -0.073405676 -0.04754469 -0.030600768 0.030419733 -0.022495942 -0.019778557
-0.06456547 0.028147273 -0.0008335053 -0.015062524 -0.03349142 0.005884725 -0.018507665 0.036471583
-0.06423206 0.012955248 0.00062975846 0.01756094 0.04449841 -0.03572466 -0.017427284 -0.060845833
0.029896416 -0.07280938 0.031055205 -0.06565311 -0.05185223 0.024775438 -0.064057365 0.043907367
-0.038699627 -0.054344576 -0.023129424 0.02638311 -0.018379476 -0.03334853 -0.03133206 -0.00012168741
-0.07132939 -0.0023441184 -0.0146173285 -0.05920328 -0.0059076347 0.0022533427 -0.044020034 -0.043473855
-0.07695925 -0.04979924 0.047973797 0.017663175 0.03504076 -0.032410793 -0.012908096 0.038768914
-0.019885352 -0.017666608 -0.07790538 0.018375887 0.036713127 0.007868903 -0.077803366 -0.0022006675
0.038642723 0.048693784 -0.027351657 0.02980669 -0.029362034 -0.04557923 -0.0067171217 -0.0666382
-0.028837418 -0.02080166 -0.055763755 0.009614111 -0.05173705 -0.044738956 0.02147222 -0.061938066
0.0072778747 0.0029443516 0.0125231715 -0.060863744 -0.010898428 0.023460729 -0.030292993 -0.03531808
0.03171984 0.00074326684 -0.051875893 0.04460786 0.016867347 -0.06319262 0.005530244 0.029214801
0.028315047 -0.010607033 0.0125544155 -0.07235337 -0.019518653 -0.06940941 0.014756863 0.0139573375
-0.057168134 -0.0073783854 -0.004443514 0.029829377 0.048681967 0.01208754 -0.0003616304 0.013430685
0.04209645 0.031810418 0.03397163 0.026523754 -0.018228993 -0.045088436 -0.06941519 0.003987504
00000000: 5a46 8f3c 35c6 36bd fae1 403d 7051 98bd
00000010: 252a 303d 42b4 34bd e359 8fbc 7a02 4b3d
00000020: f515 ea3c c63e 4ebb 68e2 7abd 9f7b 82bd
00000030: dd14 15bd f741 6bbd 37c2 52bd c874 2e3d
00000040: 89bd 3fbd 0fdb 95bd 7b0a 34ba b696 8bbd
00000050: 3ad6 74bd b2ee 1d3d 60bb 503d 4c3b 53bd
00000060: a1b4 40bd a99a 97bd da73 cfbc 0bdb 8bbd
00000070: bdfc 4cbd 862b 90bd fdfd 8dbd 8256 4c3d
00000080: 616a 133d a354 25bc 6517 7fbd 633e 883c
00000090: 3ba2 14bd 4e61 32bd e993 9abc b20d 48bd
000000a0: f4ea 8dbd 9b82 12bd 7d51 f43c 0d7d 4abd
000000b0: 3970 8fbd a5e6 c93b 14f3 95bc c608 45bd
000000c0: ff4e 8339 9cea 3f3d d7ca 0e3d 6a4b 53bd
000000d0: 4118 91bd 3194 91ba 5962 cabc 753b 3dbd
000000e0: e375 51bc 71c2 22bd 71e0 143c 1091 7bbd
000000f0: 28cb 16bd 46e8 e4bb 4714 74bd bb4a 31bd
00000100: d843 84bd 0b91 493c 813e 9dbb 5bc6 973b
00000110: c827 a4bc 33f3 94bb 7fd9 623a cadc 64bd
00000120: 8aa0 99bd e87c 273d a1bf 27bd 9c93 2abd
00000130: 3af0 a63c 65dd 183b 1276 61bd 0d4b 02bd
00000140: 60da 31bd 7a87 58bd 1318 9f3c 1910 41bd
00000150: b0d4 84bd 3a5d 273d a0ed 7e3b fc8b 59bd
00000160: f336 0b3d 3dca 0ebd 0f64 15bc 5836 29bd
00000170: 4bee e63c 100d dfba 5413 babc d307 ff3c
00000180: f8a5 59bd 0f5a dbbc 309d 163c c7e5 70bd
00000190: 9f18 48bd 8e34 283d 233f 53bd 19ff 89bb
000001a0: 6fcd 1c3d 0ddd 05bd 914a 3d3b 7f02 73bd
000001b0: 45c5 11bb 6344 363d 464c 213d 1a2e 40bd
000001c0: 59db 593d e274 2fbc 17bb 613d bb78 073d
000001d0: f01a 37bd b30c 33bd 0827 01bd 98d0 ad3c
000001e0: 5a5d d1bc c382 583d 5d21 043d 5f60 823c
000001f0: b009 db3b 6e9e 753c 8b61 1dbd e54d acbc
00000200: d8ad 2d3d 8cba 6abd 0158 48bd 28b9 e8bc
00000210: 22c3 41bd 523b aabc da7f 893b c696 d83c
00000220: e3ad 543c c9c0 79bd b755 96bd 39be 42bd
00000230: 76ae fabc ce32 f93c 6949 b8bc a406 a2bc
00000240: e73a 84bd 1c95 e63c 987f 5aba cec8 76bc
00000250: 4d2e 09bd a7d4 c03b 639d 97bc 3a63 153d
00000260: 198c 83bd 4042 543c 6016 253a f6db 8f3c
00000270: f743 363d 0554 12bd aac3 8ebc 7b39 79bd
00000280: 54e9 f43c 161d 95bd 7c67 fe3c 2375 86bd
00000290: 0163 54bd dcf5 ca3c 8230 83bd 36d8 333d
000002a0: 8083 1ebd 6b98 5ebd eb79 bdbc 6421 d83c
000002b0: 8e90 96bc 7898 08bd 0c56 00bd 6e32 ffb8
000002c0: 2515 92bd c89f 19bb 857d 6fbc 237f 72bd
000002d0: d594 c1bb d1ac 133b 5a4e 34bd a411 32bd
000002e0: d09c 9dbd 4afa 4bbd 2c80 443d 5db2 903c
000002f0: e686 0f3d 2ec1 04bd 7b7c 53bc 27cc 1e3d
00000300: 9be6 a2bc 90b9 90bc db8c 9fbd 0789 963c
00000310: 8160 163d 92ec 003c 5f57 9fbd 1339 10bb
00000320: d547 1e3d 2273 473d 9510 e0bc 292d f43c
00000330: a688 f0bc 49b1 3abd 4d1b dcbb 9c79 88bd
00000340: 733c ecbc 3e68 aabc 8968 64bd 8184 1d3c
00000350: 3bea 53bd 3240 37bd 82e6 af3c c5b2 7dbd
00000360: 3d7b ee3b 06f6 403b fd2d 4d3c 434c 79bd
00000370: 528f 32bc b730 c03c 0329 f8bc b1a9 10bd
00000380: aaec 013d cbd7 423a d17b 54bd bbb6 363d
00000390: 642d 8a3c 226b 81bd 0d37 b53b e153 ef3c
000003a0: f5f4 e73c 1fc9 2dbc 09b1 4d3c 012e 94bd
000003b0: 95e5 9fbc 8526 8ebd c5c6 713c 51ad 643c
000003c0: 2229 6abd 62c6 f1bb e69a 91bb bd5c f43c
000003d0: be66 473d d10a 463c 3699 bdb9 600c 5c3c
000003e0: 546d 2c3d a44b 023d d625 0b3d 5848 d93c
000003f0: f854 95bc a7ae 38bd 8d29 8ebd 9ca9 823b

conv1.bias f4 [64]
-0.0037259303 -0.0077724857 -0.0028699185 -0.03087363 0.22639453 -0.0056235464 0.15272845 0.013343085
0.09550545 -0.1307128 0.20858198 0.13829158 0.20545383 0.019496594 0.2528406 0.18521315
-0.024550572 -0.05513562 -0.07375831 -0.00022842822 -0.06760267 0.039830532 0.016333262 -0.058705643
-0.051336203 0.097931735 0.23496269 0.17850582 -0.024585657 0.023971604 -0.008153223 0.11153071
0.10880863 0.25436032 0.20398542 0.18423973 -0.054240372 0.011165577 -0.05717772 -0.06420142
0.030428823 0.07646991 -0.1359642 -0.010118262 -0.04904092 -0.008894169 -0.04302387 0.028275391
0.03442099 -0.05818062 0.063955605 0.0043542013 -0.055040732 -0.045748763 -0.043354664 -0.050740782
0.049106054 -0.050357513 -0.057100154 0.0027696358 -0.10229169 -0.005486722 -0.13767222 -0.038023543
00000000: bd2e 74bb 56b0 febb 3e15 3cbb b2ea fcbc
00000010: f8d3 673e ba45 b8bb d964 1c3e f49c 5a3c
00000020: 5d98 c33d 94d9 05be 8496 553e 4f9c 0d3e
00000030: 7d62 523e 52b7 9f3c 5374 813e 84a8 3d3e
00000040: 481e c9bc e3d5 61bd 990e 97bd 3c86 6fb9
00000050: 4573 8abd 5725 233d 55cd 853c 5475 70bd
00000060: e945 52bd 6f90 c83d 0f9a 703e 3bca 363e
00000070: dc67 c9bc 1960 c43c 1995 05bc 366a e43d
00000080: 0fd7 de3d 843b 823e 8ee1 503e 57a9 3c3e
00000090: 272b 5ebd d3ef 363c 2f33 6abd 097c 83bd
000000a0: de45 f93c 429c 9c3d 333a 0bbe 11c7 25bc
000000b0: 22df 48bd d9b8 11bc cc39 30bd cba1 e73c
000000c0: 06fd 0c3d cd4e 6ebd 28fb 823d b0ad 8e3b
000000d0: 6472 61bd 0e63 3bbd a994 31bd 91d5 4fbd
000000e0: 6e23 493d ae43 4ebd dae1 69bd c782 353b
000000f0: 4e7e d1bd f6c9 b3bb f2f9 0cbe 93be 1bbd

conv2.weight f4 [32, 64, 5, 5]
0.010380128 -0.007981999 -0.009074721 -0.02842984 -0.019258214 0.0047230343 -0.012573779 0.007900593
0.010556335 -0.021736229 0.015300952 0.021829797 -0.018200438 -0.018938249 -0.0043338435 -0.022583693
0.023273148 -0.006908657 -0.027063007 -0.0074763387 -0.0037059141 0.0030301928 -0.015040461 -0.027477471
0.010396405 -0.016554847 -0.019295856 -0.015406713 -0.029279007 -0.0013635574 -0.01153139 -0.018192915
-0.018682607 -0.0111279 -0.0054847226 0.011481312 0.016788403 -0.014178412 -0.024208961 0.0130426865
0.018814607 -0.0059810914 0.016516687 0.014467379 -0.033636443 -0.00087704224 0.015082975 -0.02875414
-0.018604891 -0.0025928176 -0.018256398 -0.013669854 -0.0021096482 0.015190541 0.0042655827 -0.018765662
0.009594467 -0.017857742 0.003959052 0.012847541 0.021570496 0.012564946 0.012975682 -0.010754189
-0.015967954 -0.0258054 -0.0068984497 0.010836575 -0.026473321 0.0019168649 0.012191754 -0.01553565
-0.0035801686 -0.002631509 -0.0061008353 -0.006125468 -0.014767258 -0.014007624 -0.014878923 0.015260051
-0.016981702 -0.0127522955 0.0017664353 -0.012800176 0.017421253 -0.02226221 0.009279489 -0.026611978
-0.018480537 0.012473431 -0.029570531 -0.030668605 -0.013801211 -0.023560878 -0.028732356 0.003515743
-0.0065252082 -0.034800466 -0.018608244 0.0015284979 -0.006000693 -0.1558467 -0.17235598 -0.059520636
-0.07360288 -0.002930197 -0.17415999 -0.16467083 -0.08136541 -0.055311993 -0.07365513 -0.16432643
-0.16769367 -0.11741025 -0.10752068 -0.07938811 -0.114917934 -0.10652366 -0.08703877 -0.09240809
-0.07031908 -0.10728816 -0.083276846 -0.092218176 -0.10458855 -0.016664859 0.0014951888 0.012270138
-0.023949828 -0.00055476266 -0.014577962 -0.013848062 -0.025771113 0.0035781716 0.015474571 -0.004236566
0.010760015 0.019350657 0.016091425 0.014324622 -0.002025494 0.00046411538 0.0139822615 -0.025454994
-0.018296108 -0.00045575574 0.021106815 0.018268866 -0.022794921 0.018570954 0.015849097 0.029731827
0.059782643 0.041941937 0.03044373 0.04329322 0.045330588 0.06216715 0.069327086 0.07064103
0.060317818 0.016424175 0.05503397 0.03168414 0.058375664 0.05147931 0.059516374 0.024909766
0.03955075 0.028062746 0.025725145 0.041689787 0.020999312 0.0394351 0.0656203 -0.061153617
-0.033046287 -0.027887678 -0.028674286 -0.047497503 -0.060400672 -0.046955932 -0.021666603 0.0021785696
-0.030402094 -0.044672 -0.028304376 -0.017204953 -0.027290486 -0.015794493 -0.045621082 -0.057709236
-0.015235912 -0.01339903 -0.018393548 -0.036333147 -0.04979241 0.0008895035 0.009147826 -0.008517962
0.012294717 0.07226768 0.15815184 0.16033733 0.18366486 -0.10699043 -0.06523667 -0.03615448
-0.069653496 -0.076650694 0.20026024 0.1717458 0.15290181 0.15222846 0.16983415 0.1648249
0.13221432 0.10329035 0.13900611 0.15746212 0.06283814 0.0658594 0.010297211 0.046206538
0.04557046 -0.13574134 -0.098109595 -0.015693445 0.018659338 0.034612287 -0.10238904 -0.07534885
0.012323404 0.04918792 0.012139926 -0.10161583 -0.07591488 -0.015592175 0.019208547 0.034162354
-0.13905954 -0.060882986 -0.019815711 0.035516884 0.03922509 -0.14206712 -0.071488924 0.009862178
0.01716692 0.007991252 0.090770744 0.039246913 -0.046271984 -0.45838735 -0.07642836 0.027289098
00000000: 6a11 2a3c eec6 02bc 23ae 14bc b2e5 e8bc
00000010: 67c3 9dbc afc3 9a3b 4002 4ebc 7d71 013c
00000020: 7af4 2c3c 2d10 b2bc d8b0 7a3c 67d4 b23c
00000030: 1619 95bc 6324 9bbc ea02 8ebb 7001 b9bc
00000040: 54a7 be3c 0462 e2bb 3db3 ddbc 13fc f4bb
00000050: ecde 72bb 3396 463b 446c 76bc 6f18 e1bc
00000060: af55 2a3c 089e 87bc 5812 9ebc 706c 7cbc
00000070: 87da efbc 65b9 b2ba 28ee 3cbc 4f09 95bc
00000080: 440c 99bc cc51 36bc 30b9 b3bb 1d1c 3c3c
00000090: d587 893c 924c 68bc df51 c6bc feb0 553c
000000a0: 1721 9a3c 08fd c3bb 014e 873c 9608 6d3c
000000b0: 5ec6 09bd 4fe9 65ba 951e 773c cd8d ebbc
000000c0: 4969 98bc 43ec 29bb 718e 95bc 86f7 5fbc
000000d0: 0642 0abb bfe1 783c 4dc6 8b3b 72ba 99bc
000000e0: 1c32 1d3c 664a 92bc efba 813b 7e7e 523c
000000f0: 9cb4 b03c 34dd 4d3c f497 543c 5732 30bc
00000100: 3acf 82bc d965 d3bc 640c e2bb e48b 313c
00000110: 94de d8bc 503f fb3a ecbf 473c 3d89 7ebc
00000120: 43a1 6abb 6575 2cbb 84e9 c7bb 26b8 c8bb
00000130: 5ff2 71bc 3c80 65bc bac6 73bc 4b05 7a3c
00000140: 361d 8bbc 01ef 50bc bc87 e73a d4b7 51bc
00000150: 04b7 8e3c 3d5f b6bc ff08 183c 5d01 dabc
00000160: 7f64 97bc 5d5d 4c3c e63d f2bc ba3c fbbc
00000170: 791e 62bc be02 c1bc 1e60 ebbc 6168 663b
00000180: 6ad1 d5bb ef8a 0ebd 5170 98bc e157 c83a
00000190: 76a1 c4bb 4796 1fbe 167e 30be e9cb 73bd
000001a0: 1bbd 96bd 8c08 40bb ff56 32be 789f 28be
000001b0: e8a2 a6bd d48e 62bd 80d8 96bd 3045 28be
000001c0: e4b7 2bbe c974 f0bd cd33 dcbd 3c96 a2bd
000001d0: 185a ebbd 1429 dabd 6241 b2bd 7440 bdbd
000001e0: 7303 90bd e5b9 dbbd 0d8d aabd e2dc bcbd
000001f0: 8632 d6bd be84 88bc 36fa c33a b008 493c
00000200: 6e32 c4bc 7e6d 11ba 68d8 6ebc fbe2 62bc
00000210: f11d d3bc c27f 6a3b 0e89 7d3c e4d2 8abb
00000220: c64a 303c 4585 9e3c 2ad2 833c d2b1 6a3c
00000230: 26be 04bb 8354 f339 db15 653c fe86 d0bc
00000240: b8e1 95bc 80f2 eeb9 33e8 ac3c 97a8 953c
00000250: 6abc babc 1d22 983c f7d5 813c 2990 f33c
00000260: a5de 743d 4fcb 2b3d 2165 f93c 3b54 313d
00000270: 91ac 393d fba2 7e3d 5cfb 8d3d 3fac 903d
00000280: d10f 773d fe8b 863c 4d6b 613d 3bc7 013d
00000290: 521b 6f3d f8db 523d 71c7 733d 910f cc3c
000002a0: f8ff 213d d8e3 e53c 8abd d23c e9c2 2a3d
000002b0: c006 ac3c b386 213d f063 863d 377c 7abd
000002c0: 8b5b 07bd b374 e4bc 56e6 eabc be8c 42bd
000002d0: b266 77bd dd54 40bd 297e b1bc 55c6 0e3b
000002e0: d00d f9bc fdf9 36bd 94de e7bc 67f1 8cbc
000002f0: 4c90 dfbc 7463 81bc 2cdd 3abd 8560 6cbd
00000300: 0ca0 79bc 9b87 5bbc 11ae 96bc 11d2 14bd
00000310: 20f3 4bbd 922d 693a c3e0 153c ec8e 0bbc
00000320: c86f 493c 1401 943d 8ef2 213e 782f 243e
00000330: a412 3c3e cc1d dbbd ce9a 85bd b816 14bd
00000340: 7ea6 8ebd 0afb 9cbd 0511 4d3e 22de 2f3e
00000350: 4b92 1c3e c7e1 1b3e 01e9 2d3e dcc7 283e
00000360: 3163 073e e489 d33d 9e57 0e3e c03d 213e
00000370: 48b1 803d 4be1 863d a2b5 283c 1143 3d3d
00000380: 17a8 3a3d c7ff 0abe afed c8bd 8a8f 80bc
00000390: 78db 983c 9dc5 0d3d 58b1 d1bd 7f50 9abd
000003a0: 1ae8 493c 4679 493d 8ae6 463c f61b d0bd
000003b0: 4379 9bbd 5276 7fbc 3e5b 9d3c d3ed 0b3d
000003c0: a065 0ebe 7060 79bd 8f54 a2bc 277a 113d
000003d0: 7daa 203d 0b7a 11be c968 92bd f994 213c
000003e0: a4a1 8c3c bded 023c 03e6 b93d 5fc1 203d
000003f0: b187 3dbd bfb1 eabe 7986 9cbd 638d df3c

conv2.bias f4 [32]
-0.09243765 0.016196331 -0.15368746 -0.026803017 -0.023546759 -0.032334056 -0.0050466885 0.058080796
0.06211207 -7.514481e-05 -0.017371725 -0.014965647 -0.025969556 -0.019145425 -0.07179109 0.039690882
-0.0020962087 -0.021973407 -0.030651446 0.03331521 0.037767585 0.02737115 -0.06502986 0.0057102777
0.022484297 0.014114292 -0.12698664 0.095958136 0.009673002 -0.030431343 0.018818846 -0.026539577
00000000: f34f bdbd 2bae 843c 3f60 1dbe 0092 dbbc
00000010: 22e5 c0bc b770 04bd b15e a5bb 21e6 6d3d
00000020: 3a69 7e3d 1097 9db8 264f 8ebc 7932 75bc
00000030: 1bbe d4bc ded6 9cbc 3507 93bd e892 223d
00000040: 8c60 09bb 9301 b4bc be18 fbbc 8875 083d
00000050: 2fb2 1a3d 7639 e03c 602e 85bd 481d bb3b
00000060: fd30 b83c a23f 673c c908 02be b385 c43d
00000070: 837b 1e3c 274b f9bc fb29 9a3c 8769 d9bc

conv3.weight f4 [3, 32, 5, 5]
0.040072035 0.029218076 0.023641044 0.044348575 -0.1690974 -0.0035513293 0.009191026 0.037505176
-0.0004595508 -0.059796743 -0.0281387 0.038624395 0.006782629 0.00026708675 -0.017690746 0.004698196
-0.006457329 0.013572971 0.012200519 0.024538266 0.066289306 0.06866579 0.07635557 0.07034937
0.112927936 -0.0075990977 -0.026484225 -0.008025708 0.039097134 -0.0024588848 0.0058898646 0.0035834473
-0.026277047 0.010059775 0.024774045 0.008427524 -0.018220333 0.0055339476 -0.0009907964 -0.026197443
-0.011503498 -0.0063826693 0.0005846246 -0.018271383 -0.012204913 -0.009118705 0.03243548 -0.014108257
0.024981586 -0.0065704077 -0.02307501 -0.017607002 -0.0117095215 0.006299547 -0.018271336 0.007985399
-0.022105277 -0.012111337 0.021577004 -0.00042200985 -0.008859562 -0.019218609 0.025704307 0.007003467
-0.012416746 0.009254906 0.015106147 -0.0015295871 0.010577281 -0.014149855 0.014410552 0.0058758482
0.010624449 0.025300613 0.021523196 -0.02391025 -0.0021725083 3.5819885e-05 0.016845347 0.031961463
-0.01335546 -0.03279087 -0.014022167 0.030659026 0.017613038 0.0016193216 0.018855518 0.036300305
0.024004625 0.0014481206 -0.018958231 0.017660929 0.043391198 0.01951978 0.0026159596 -0.005087891
-0.01271474 0.012747054 0.004802341 0.018946063 0.04094507 0.013943204 -0.022374218 -0.0063582784
6.396061e-06 -0.016229149 0.0058881105 0.011326413 -0.019252526 -0.027887573 -0.0034174428 -0.023301471
0.02319533 0.020530133 0.020858746 -0.0011391223 -0.007288972 0.017877834 -0.027469587 -0.016465163
-0.0041935006 0.03981405 -0.015600651 0.03675539 0.024984859 -0.019554846 -0.009598298 0.00048269157
-0.023033347 -0.003267679 0.04005189 -0.0028115115 -0.0074417857 -0.00014836075 -0.025163861 -0.011000432
0.016711727 -0.0064898264 0.018071981 5.0870032e-05 0.006592481 0.036378518 0.029511748 -0.021310404
0.004945113 0.01034889 0.00074811466 -0.010548875 -0.017344903 -0.029608037 -0.043196205 -0.011303275
-0.010493588 -0.0085585425 -0.012592479 -0.008683726 0.0015694214 0.001594354 -4.663288e-05 0.0120355515
-0.008768314 -0.0018718466 0.01742203 0.011919738 -0.0025439675 0.001863147 0.0020586867 0.005480758
0.0011237301 0.0045632776 0.0037657889 -0.006351413 0.02288769 -0.004190145 0.045016736 0.022783985
0.011886235 0.003426897 -0.01887889 -0.026920615 0.012944672 0.006430579 0.02930001 0.034813054
-0.03177195 0.022005519 0.013610412 0.007982195 0.021218086 0.017294897 -0.00011728209 0.019392326
0.031000108 -0.017781986 0.003717832 0.029938595 0.0007456354 0.053378876 -0.009951041 0.010282956
-0.027666887 0.00095531356 0.0004424645 -0.03393698 -0.0019180438 -0.014609292 -0.055001456 -0.018304687
0.0048418734 -0.011798413 -0.018833442 -0.009804998 -0.024129065 0.007004585 -0.030495372 0.0067878
0.02370843 -0.04184545 0.01929467 0.0017935048 0.012147841 -0.029603511 -0.0054306374 0.024815407
-0.024248678 -0.037060246 -0.018880712 -0.022526033 0.029944636 -0.14154266 0.037788555 0.040605463
0.068132006 0.055916063 0.0017298067 0.01254214 0.02557271 0.047109067 0.03879759 0.0103153605
-0.017835429 0.021042932 0.008135272 0.056142207 -0.023242392 -0.0067910505 -0.009862238 0.06306316
0.03397865 -0.027077874 0.019230653 0.017009005 0.026944894 0.017798597 0.01939108 0.031253427
00000000: 9322 243d bf5a ef3c ddaa c13c daa6 353d
00000010: de27 2dbe 6bbd 68bb f595 163c 079f 193d
00000020: ddef f0b9 6eed 74bd 2283 e6bc 9d34 1e3d
00000030: d140 de3b c707 8c39 2fec 90bc 53f3 993b
00000040: 0098 d3bb 2b61 5e3c b0e4 473c 7904 c93c
00000050: b0c2 873d a6a0 8c3d 4f60 9c3d 5513 903d
00000060: c346 e73d da01 f9bb 72f5 d8bc 427e 03bc
00000070: 5124 203d 3e25 21bb c4ff c03b 45d8 6a3b
00000080: f642 d7bc c1d1 243c f0f2 ca3c 9913 0a3c
00000090: cf42 95bc 1e56 b53b 9cdd 81ba 059c d6bc
000000a0: 2b79 3cbc b625 d1bb 7e41 193a dead 95bc
000000b0: 1ef7 47bc 9f66 15bc 11db 043d 5226 67bc
000000c0: 2fa6 cc3c 934c d7bb ce07 bdbc 8f3c 90bc
000000d0: 4bd9 3fbc 6e6c ce3b c5ad 95bc 31d5 023c
000000e0: 2016 b5bc a16e 46bc 42c2 b03c 3441 ddb9
000000f0: b227 11bc 5870 9dbc d791 d23c 577d e53b
00000100: 9b6f 4bbc e4a1 173c c67f 773c 6d7c c8ba
00000110: 554c 2d3c cbd4 67bc 3c1a 6c3c 308a c03b
00000120: 2b12 2e3c 3b43 cf3c 6a51 b03c 6edf c3bc
00000130: a460 0ebb 4f3d 1638 41ff 893c 06ea 023d
00000140: dcd0 5abc b84f 06bd 3bbd 65bc a328 fb3c
00000150: 3849 903c 6b3f d43a e376 9a3c a1af 143d
00000160: 59a5 c43c ddce bd3a 4b4e 9bbc a7ad 903c
00000170: f8ba 313d f2e7 9f3c 8570 2b3b 53b8 a6bb
00000180: 7c51 50bc 05d9 503c f55c 9d3b c634 9b3c
00000190: 05b6 273d 0972 643c 234a b7bc 1b59 d0bb
000001a0: bf9d d636 fef2 84bc 0df1 c03b 6b92 393c
000001b0: 79b7 9dbc 7b74 e4bc 2df7 5fbb bae2 bebc
000001c0: 2204 be3c cf2e a83c f6df aa3c 9a4e 95ba
000001d0: 54d8 eebb 8974 923c e607 e1bc f3e1 86bc
000001e0: a269 89bb 0f14 233d df99 7fbc d28c 163d
000001f0: 0cad cc3c 7c31 a0bc 2e42 1dbc c411 fd39
00000200: 6eb0 bcbc 8e26 56bb 730d 243d 5641 38bb
00000210: 39da f3bb 4991 1bb9 7124 cebc 283b 34bc
00000220: 08e7 883c 9ca8 d4bb b10b 943c 485d 5538
00000230: bd05 d83b a401 153d 9fc2 f13c 2893 aebc
00000240: 9d0a a23b 648e 293c 201d 443a 30d5 2cbc
00000250: e616 8ebc 8e8c f2bc 81ee 30bd 5f31 39bc
00000260: 4ced 2bbc 2139 0cbc af50 4ebc 3046 0ebc
00000270: 0bb5 cd3a a5f9 d03a ac97 43b8 c330 453c
00000280: f9a8 0fbc c058 f5ba a5b8 8e3c 014b 433c
00000290: b1b8 26bb d734 f43a 08eb 063b ee97 b33b
000002a0: 204a 933a 8c87 953b 74cb 763b 841f d0bb
000002b0: f77e bb3c 7c4d 89bb 7863 383d 7ba5 ba3c
000002c0: 7cbe 423c cb95 603b e7a7 9abc 9f88 dcbc
000002d0: e415 543c 9bb7 d23b 9306 f03c 2298 0e3d
000002e0: 4e23 02bd eb44 b43c 35fe 5e3c c1c7 023c
000002f0: 8dd1 ad3c 07ae 8d3c 58f5 f5b8 a8dc 9e3c
00000300: f0f3 fd3c 87ab 91bc dfa6 733b c941 f53c
00000310: bf76 433a cfa3 5a3d b109 23bc d879 283c
00000320: aba5 e2bc 026e 7a3a 94fa e739 8101 0bbd
00000330: df66 fbba d05b 6fbc 3549 61bd b6f3 95bc
00000340: 94a8 9e3b 214e 41bc 9748 9abc 24a5 20bc
00000350: 51aa c5bc b886 e53b 6ed1 f9bc 326c de3b
00000360: 2e38 c23c 2266 2bbd db0f 9e3c 0914 eb3a
00000370: bd07 473c 1083 f2bc 7df3 b1bb ae49 cb3c
00000380: 2aa5 c6bc 7ccc 17bd b9ab 9abc 8488 b8bc
00000390: 744e f53c 8ff0 10be 2cc8 1a3d ea51 263d
000003a0: cb88 8b3d 3e08 653d aeba e23a 8c7d 4d3c
000003b0: dc7d d13c 70f5 403d 39ea 1e3d c201 293c
000003c0: 9b1b 92bc 3a62 ac3c ce49 053c 5ff5 653d
000003d0: d466 bebc 7687 debb 3995 21bc 4227 813d
000003e0: 322d 0b3d 6bd2 ddbc 9a89 9d3c 7856 8b3c
000003f0: 8abb dc3c 5dce 913c 0bda 9e3c 9803 003d

conv3.bias f4 [3]
0.013706282 0.03663408 0.05456716
00000000: 5090 603c 9e0d 163d d081 5f3d
